Overriding model.yaml nc=80 with nc=3
                 from  n    params  module                                  arguments
  0                -1  1      3520  models.common.Focus                     [3, 32, 3]
  1                -1  1     18560  models.common.Conv                      [32, 64, 3, 1]
  2                -1  1         0  models.common.space_to_depth            [1]
  3                -1  1     31104  models.common.C3                        [256, 64, 1]
  4                -1  1     73984  models.common.Conv                      [64, 128, 3, 1]
  5                -1  1         0  models.common.space_to_depth            [1]
  6                -1  2    164864  models.common.C3                        [512, 128, 2]
  7                -1  1    295424  models.common.Conv                      [128, 256, 3, 1]
  8                -1  1         0  models.common.space_to_depth            [1]
  9                -1  3    821760  models.common.C3                        [1024, 256, 3]
 10                -1  1   1180672  models.common.Conv                      [256, 512, 3, 1]
 11                -1  1         0  models.common.space_to_depth            [1]
 12                -1  1   1969152  models.common.C3                        [2048, 512, 1]
 13                -1  1    656896  models.common.SPPF                      [512, 512, 5]
 14                -1  1    131584  models.common.Conv                      [512, 256, 1, 1]
 15                -1  1         0  torch.nn.modules.upsampling.Upsample    [None, 2, 'nearest']
 16           [-1, 9]  1         0  models.common.Concat                    [1]
 17                -1  1    361984  models.common.C3                        [512, 256, 1, False]
 18                -1  1     33024  models.common.Conv                      [256, 128, 1, 1]
 19                -1  1         0  torch.nn.modules.upsampling.Upsample    [None, 2, 'nearest']
 20           [-1, 6]  1         0  models.common.Concat                    [1]
 21                -1  1     90880  models.common.C3                        [256, 128, 1, False]
 22                -1  1    147712  models.common.Conv                      [128, 128, 3, 1]
 23                -1  1         0  models.common.space_to_depth            [1]
 24          [-1, 18]  1         0  models.common.Concat                    [1]
 25                -1  1    394752  models.common.C3                        [640, 256, 1, False]
 26                -1  1    590336  models.common.Conv                      [256, 256, 3, 1]
 27                -1  1         0  models.common.space_to_depth            [1]
 28          [-1, 14]  1         0  models.common.Concat                    [1]
 29                -1  1   1575936  models.common.C3                        [1280, 512, 1, False]
 30      [21, 25, 29]  1     21576  models.yolo.Detect                      [3, [[10, 13, 16, 30, 33, 23], [30, 61, 62, 45, 59, 119], [116, 90, 156, 198, 373, 326]], [128, 256, 512]]
D:\zjj\envs\yolov5\lib\site-packages\torch\functional.py:478: UserWarning: torch.meshgrid: in an upcoming release, it will be required to pass the indexing argument. (Triggered internally at  ..\aten\src\ATen\native\TensorShape.cpp:2895.)
…
